…
ensor_attributes.html#torch.device \"torch.device\").type == 'cuda') and (ngpu > 1):\n    netG = [nn.DataParallel](https://pytorch.org/docs/stable/generated/torch.nn.DataParallel.html#torch.nn.DataParallel \"torch.nn.DataParallel\")(netG, list(range(ngpu)))\n\n# Apply the ``weights_init`` function to randomly initialize all weights\n#  to ``mean=0``, ``stdev=0.02``.\n[netG.apply](https://pytorch.org/docs/stable/generated/torch.nn.Module.html#torch.nn.Module.apply \"torch.nn.Module.apply\")(weights_init)\n\n# Print the model\nprint(netG) \n```", "```py\nGenerator(\n  (main): Sequential(\n    (0): ConvTranspose2d(100, 512, kernel_size=(4, 4), stride=(1, 1), bias=False)\n    (1): BatchNorm2d(512, eps=1e-05, momentum=0.1, affine=True, track_running_stats=True)\n    (2): ReLU(inplace=True)\n    (3): ConvTranspose2d(512, 256, kernel_size=(4, 4), stride=(2, 2), padding=(1, 1), bias=False)\n    (4): BatchNorm2d(256, eps=1e-05, momentum=0.1, affine=True, track_running_stats=True)\n    (5): ReLU(inplace=True)\n    (6): ConvTranspose2d(256, 128, kernel_size=(4, 4), stride=(2, 2), padding=(1, 1), bias=False)\n    (7): BatchNorm2d(128, eps=1e-05, momentum=0.1, affine=True, track_running_stats=True)\n    (8): ReLU(inplace=True)\n    (9): ConvTranspose2d(128, 64, kernel_size=(4, 4), stride=(2, 2), padding=(1, 1), bias=False)\n    (10): BatchNorm2d(64, eps=1e-05, momentum=0.1, affine=True, track_running_stats=True)\n    (11): ReLU(inplace=True)\n    (12): ConvTranspose2d(64, 3, kernel_size=(4, 4), stride=(2, 2), padding=(1, 1), bias=False)\n    (13): Tanh()\n  )\n) \n```", "```py\nclass Discriminator([nn.Module](https://pytorch.org/docs/stable/generated/torch.nn.Module.html#torch.nn.Module \"torch.nn.Module\")):\n    def __init__(self, ngpu):\n        super([Discriminator](https://pytorch.org/docs/stable/generated/torch.nn.Module.html#torch.nn.Module \"torch.nn.Mo
…
ributes.html#torch.device \"torch.device\").type == 'cuda') and (ngpu > 1):\n    netD = [nn.DataParallel](https://pytorch.org/docs/stable/generated/torch.nn.DataParallel.html#torch.nn.DataParallel \"torch.nn.DataParallel\")(netD, list(range(ngpu)))\n\n# Apply the ``weights_init`` function to randomly initialize all weights\n# like this: ``to mean=0, stdev=0.2``.\n[netD.apply](https://pytorch.org/docs/stable/generated/torch.nn.Module.html#torch.nn.Module.apply \"torch.nn.Module.apply\")(weights_init)\n\n# Print the model\nprint(netD) \n```", "```py\nDiscriminator(\n  (main): Sequential(\n    (0): Conv2d(3, 64, kernel_size=(4, 4), stride=(2, 2), padding=(1, 1), bias=False)\n    (1): LeakyReLU(negative_slope=0.2, inplace=True)\n    (2): Conv2d(64, 128, kernel_size=(4, 4), stride=(2, 2), padding=(1, 1), bias=False)\n    (3): BatchNorm2d(128, eps=1e-05, momentum=0.1, affine=True, track_running_stats=True)\n    (4): LeakyReLU(negative_slope=0.2, inplace=True)\n    (5): Conv2d(128, 256, kernel_size=(4, 4), stride=(2, 2), padding=(1, 1), bias=False)\n    (6): BatchNorm2d(256, eps=1e-05, momentum=0.1, affine=True, track_running_stats=True)\n    (7): LeakyReLU(negative_slope=0.2, inplace=True)\n    (8): Conv2d(256, 512, kernel_size=(4, 4), stride=(2, 2), padding=(1, 1), bias=False)\n    (9): BatchNorm2d(512, eps=1e-05, momentum=0.1, affine=True, track_running_stats=True)\n    (10): LeakyReLU(negative_slope=0.2, inplace=True)\n    (11): Conv2d(512, 1, kernel_size=(4, 4), stride=(1, 1), bias=False)\n    (12): Sigmoid()\n  )\n) \n```", "```py\n# Initialize the ``BCELoss`` function\n[criterion](https://pytorch.org/docs/stable/generated/torch.nn.BCELoss.html#torch.nn.BCELoss \"torch.nn.BCELoss\") = [nn.BCELoss](https://pytorch.org/docs/stable/generated/torch.nn.BCELoss.html#torch.nn.BCELoss \"torch.nn.BCELoss\")()\n\n# Create batch of laten
…
